…
Loading /home/ucapnje/share/DeepMass/run_scripts/../picola_training/nicaea_rescaled/training_data57/sv_training_KS.npy

Apply mask

Number of bad files = 503


Shuffle and take fraction of test data
Number of pixels sample = 131072000
pixels out of range (truth) = 4
pixels out of range (input/noisy) = 65
clean array bytes = 60685549568
noisy array bytes = 60685549568
Plotting data. Saving to: ../outputs/picola_script_outputs/picola_data.png
training network KS 

_________________________________________________________________
Layer (type)                 Output Shape              Param #   
=================================================================
input_1 (InputLayer)         (None, 256, 256, 1)       0         
_________________________________________________________________
conv2d_1 (Conv2D)            (None, 256, 256, 32)      320       
_________________________________________________________________
conv2d_2 (Conv2D)            (None, 256, 256, 32)      9248      
_________________________________________________________________
batch_normalization_1 (Batch (None, 256, 256, 32)      128       
_________________________________________________________________
conv2d_3 (Conv2D)            (None, 256, 256, 32)      9248      
_________________________________________________________________
conv2d_4 (Conv2D)            (None, 256, 256, 32)      9248      
_________________________________________________________________
batch_normalization_2 (Batch (None, 256, 256, 32)      128       
_________________________________________________________________
conv2d_5 (Conv2D)            (None, 256, 256, 1)       289       
=================================================================
Total params: 28,609
Trainable params: 28,481
Non-trainable params: 128
_________________________________________________________________
10 32 1e-05
<generator object batch_generator at 0x2abcf34344c0>
(227497, 256, 256, 1)
(4000, 256, 256, 1)
7109
Epoch 1/10
 - 667s - loss: 0.0030 - val_loss: 1.0458e-04
Epoch 2/10
 - 661s - loss: 6.4475e-05 - val_loss: 5.3571e-05
…
