…
clean array bytes = 60685549568
noisy array bytes = 60685549568
Plotting data. Saving to: ../outputs/picola_script_outputs/picola_data.png
<generator object batch_generator at 0x2b55446e5728>
(227497, 256, 256, 1)
(4000, 256, 256, 1)
7109
training network KS 

unet_simple lr = 0.0001
__________________________________________________________________________________________________
Layer (type)                    Output Shape         Param #     Connected to                     
==================================================================================================
input_1 (InputLayer)            (None, 256, 256, 1)  0                                            
__________________________________________________________________________________________________
conv2d_1 (Conv2D)               (None, 256, 256, 32) 320         input_1[0][0]                    
__________________________________________________________________________________________________
batch_normalization_1 (BatchNor (None, 256, 256, 32) 128         conv2d_1[0][0]                   
__________________________________________________________________________________________________
average_pooling2d_1 (AveragePoo (None, 128, 128, 32) 0           batch_normalization_1[0][0]      
__________________________________________________________________________________________________
conv2d_2 (Conv2D)               (None, 128, 128, 64) 18496       average_pooling2d_1[0][0]        
__________________________________________________________________________________________________
batch_normalization_2 (BatchNor (None, 128, 128, 64) 256         conv2d_2[0][0]                   
__________________________________________________________________________________________________
average_pooling2d_2 (AveragePoo (None, 64, 64, 64)   0           batch_normalization_2[0][0]      
__________________________________________________________________________________________________
conv2d_3 (Conv2D)               (None, 64, 64, 128)  73856       average_pooling2d_2[0][0]        
__________________________________________________________________________________________________
batch_normalization_3 (BatchNor (None, 64, 64, 128)  512         conv2d_3[0][0]                   
__________________________________________________________________________________________________
up_sampling2d_1 (UpSampling2D)  (None, 128, 128, 128 0           batch_normalization_3[0][0]      
__________________________________________________________________________________________________
concatenate_1 (Concatenate)     (None, 128, 128, 192 0           batch_normalization_2[0][0]      
                                                                 up_sampling2d_1[0][0]            
__________________________________________________________________________________________________
dropout_1 (Dropout)             (None, 128, 128, 192 0           concatenate_1[0][0]              
__________________________________________________________________________________________________
conv2d_4 (Conv2D)               (None, 128, 128, 64) 110656      dropout_1[0][0]                  
__________________________________________________________________________________________________
up_sampling2d_2 (UpSampling2D)  (None, 256, 256, 64) 0           conv2d_4[0][0]                   
__________________________________________________________________________________________________
concatenate_2 (Concatenate)     (None, 256, 256, 96) 0           batch_normalization_1[0][0]      
                                                                 up_sampling2d_2[0][0]            
__________________________________________________________________________________________________
dropout_2 (Dropout)             (None, 256, 256, 96) 0           concatenate_2[0][0]              
__________________________________________________________________________________________________
conv2d_5 (Conv2D)               (None, 256, 256, 32) 27680       dropout_2[0][0]                  
__________________________________________________________________________________________________
conv2d_6 (Conv2D)               (None, 256, 256, 1)  33          conv2d_5[0][0]                   
==================================================================================================
Total params: 231,937
Trainable params: 231,489
Non-trainable params: 448
__________________________________________________________________________________________________
10 32 0.0001
Epoch 1/10
 - 1191s - loss: 4.3684e-04 - val_loss: 5.6401e-05
Epoch 2/10
…
 - 1190s - loss: 5.6113e-05 - val_loss: 5.5227e-05
Epoch 7/10
 - 1190s - loss: 5.6015e-05 - val_loss: 5.6269e-05
Epoch 8/10
 - 1190s - loss: 5.5977e-05 - val_loss: 5.6641e-05
Epoch 9/10
 - 1190s - loss: 5.6045e-05 - val_loss: 5.6183e-05
Epoch 10/10
 - 1191s - loss: 5.5994e-05 - val_loss: 5.6123e-05
unet lr = 0.0001
__________________________________________________________________________________________________
Layer (type)                    Output Shape         Param #     Connected to                     
==================================================================================================
input_5 (InputLayer)            (None, 256, 256, 1)  0                                            
__________________________________________________________________________________________________
conv2d_25 (Conv2D)              (None, 256, 256, 32) 320         input_5[0][0]                    
__________________________________________________________________________________________________
batch_normalization_13 (BatchNo (None, 256, 256, 32) 128         conv2d_25[0][0]                  
__________________________________________________________________________________________________
conv2d_26 (Conv2D)              (None, 256, 256, 32) 9248        batch_normalization_13[0][0]     
__________________________________________________________________________________________________
batch_normalization_14 (BatchNo (None, 256, 256, 32) 128         conv2d_26[0][0]                  
__________________________________________________________________________________________________
average_pooling2d_9 (AveragePoo (None, 128, 128, 32) 0           batch_normalization_14[0][0]     
__________________________________________________________________________________________________
conv2d_27 (Conv2D)              (None, 128, 128, 64) 18496       average_pooling2d_9[0][0]        
__________________________________________________________________________________________________
batch_normalization_15 (BatchNo (None, 128, 128, 64) 256         conv2d_27[0][0]                  
__________________________________________________________________________________________________
conv2d_28 (Conv2D)              (None, 128, 128, 64) 36928       batch_normalization_15[0][0]     
__________________________________________________________________________________________________
batch_normalization_16 (BatchNo (None, 128, 128, 64) 256         conv2d_28[0][0]                  
__________________________________________________________________________________________________
average_pooling2d_10 (AveragePo (None, 64, 64, 64)   0           batch_normalization_16[0][0]     
__________________________________________________________________________________________________
conv2d_29 (Conv2D)              (None, 64, 64, 128)  73856       average_pooling2d_10[0][0]       
__________________________________________________________________________________________________
batch_normalization_17 (BatchNo (None, 64, 64, 128)  512         conv2d_29[0][0]                  
__________________________________________________________________________________________________
conv2d_30 (Conv2D)              (None, 64, 64, 128)  147584      batch_normalization_17[0][0]     
__________________________________________________________________________________________________
batch_normalization_18 (BatchNo (None, 64, 64, 128)  512         conv2d_30[0][0]                  
__________________________________________________________________________________________________
up_sampling2d_9 (UpSampling2D)  (None, 128, 128, 128 0           batch_normalization_18[0][0]     
__________________________________________________________________________________________________
concatenate_9 (Concatenate)     (None, 128, 128, 192 0           batch_normalization_16[0][0]     
                                                                 up_sampling2d_9[0][0]            
__________________________________________________________________________________________________
dropout_9 (Dropout)             (None, 128, 128, 192 0           concatenate_9[0][0]              
__________________________________________________________________________________________________
conv2d_31 (Conv2D)              (None, 128, 128, 64) 110656      dropout_9[0][0]                  
__________________________________________________________________________________________________
conv2d_32 (Conv2D)              (None, 128, 128, 64) 36928       conv2d_31[0][0]                  
__________________________________________________________________________________________________
up_sampling2d_10 (UpSampling2D) (None, 256, 256, 64) 0           conv2d_32[0][0]                  
__________________________________________________________________________________________________
concatenate_10 (Concatenate)    (None, 256, 256, 96) 0           batch_normalization_14[0][0]     
                                                                 up_sampling2d_10[0][0]           
__________________________________________________________________________________________________
dropout_10 (Dropout)            (None, 256, 256, 96) 0           concatenate_10[0][0]             
__________________________________________________________________________________________________
conv2d_33 (Conv2D)              (None, 256, 256, 32) 27680       dropout_10[0][0]                 
__________________________________________________________________________________________________
conv2d_34 (Conv2D)              (None, 256, 256, 32) 9248        conv2d_33[0][0]                  
__________________________________________________________________________________________________
conv2d_35 (Conv2D)              (None, 256, 256, 1)  33          conv2d_34[0][0]                  
==================================================================================================
Total params: 472,769
Trainable params: 471,873
Non-trainable params: 896
__________________________________________________________________________________________________
10 32 0.0001
Epoch 1/10
 - 1686s - loss: 2.0183e-04 - val_loss: 5.6287e-05
Epoch 2/10
…
Epoch 7/10
 - 1678s - loss: 5.0894e-05 - val_loss: 5.0794e-05
Epoch 8/10
 - 1678s - loss: 5.0714e-05 - val_loss: 5.0934e-05
Epoch 9/10
 - 1678s - loss: 5.0635e-05 - val_loss: 5.0413e-05
Epoch 10/10
 - 1678s - loss: 5.0515e-05 - val_loss: 5.0428e-05
unet_simple_deep lr = 0.0001
__________________________________________________________________________________________________
Layer (type)                    Output Shape         Param #     Connected to                     
==================================================================================================
input_9 (InputLayer)            (None, 256, 256, 1)  0                                            
__________________________________________________________________________________________________
conv2d_69 (Conv2D)              (None, 256, 256, 32) 320         input_9[0][0]                    
__________________________________________________________________________________________________
batch_normalization_37 (BatchNo (None, 256, 256, 32) 128         conv2d_69[0][0]                  
__________________________________________________________________________________________________
average_pooling2d_17 (AveragePo (None, 128, 128, 32) 0           batch_normalization_37[0][0]     
__________________________________________________________________________________________________
conv2d_70 (Conv2D)              (None, 128, 128, 64) 18496       average_pooling2d_17[0][0]       
__________________________________________________________________________________________________
batch_normalization_38 (BatchNo (None, 128, 128, 64) 256         conv2d_70[0][0]                  
__________________________________________________________________________________________________
average_pooling2d_18 (AveragePo (None, 64, 64, 64)   0           batch_normalization_38[0][0]     
__________________________________________________________________________________________________
conv2d_71 (Conv2D)              (None, 64, 64, 128)  73856       average_pooling2d_18[0][0]       
__________________________________________________________________________________________________
batch_normalization_39 (BatchNo (None, 64, 64, 128)  512         conv2d_71[0][0]                  
__________________________________________________________________________________________________
average_pooling2d_19 (AveragePo (None, 32, 32, 128)  0           batch_normalization_39[0][0]     
__________________________________________________________________________________________________
conv2d_72 (Conv2D)              (None, 32, 32, 128)  147584      average_pooling2d_19[0][0]       
__________________________________________________________________________________________________
batch_normalization_40 (BatchNo (None, 32, 32, 128)  512         conv2d_72[0][0]                  
__________________________________________________________________________________________________
up_sampling2d_17 (UpSampling2D) (None, 64, 64, 128)  0           batch_normalization_40[0][0]     
__________________________________________________________________________________________________
concatenate_17 (Concatenate)    (None, 64, 64, 256)  0           batch_normalization_39[0][0]     
                                                                 up_sampling2d_17[0][0]           
__________________________________________________________________________________________________
dropout_17 (Dropout)            (None, 64, 64, 256)  0           concatenate_17[0][0]             
__________________________________________________________________________________________________
conv2d_73 (Conv2D)              (None, 64, 64, 64)   147520      dropout_17[0][0]                 
__________________________________________________________________________________________________
up_sampling2d_18 (UpSampling2D) (None, 128, 128, 64) 0           conv2d_73[0][0]                  
__________________________________________________________________________________________________
concatenate_18 (Concatenate)    (None, 128, 128, 128 0           batch_normalization_38[0][0]     
                                                                 up_sampling2d_18[0][0]           
__________________________________________________________________________________________________
dropout_18 (Dropout)            (None, 128, 128, 128 0           concatenate_18[0][0]             
__________________________________________________________________________________________________
conv2d_74 (Conv2D)              (None, 128, 128, 64) 73792       dropout_18[0][0]                 
__________________________________________________________________________________________________
up_sampling2d_19 (UpSampling2D) (None, 256, 256, 64) 0           conv2d_74[0][0]                  
__________________________________________________________________________________________________
concatenate_19 (Concatenate)    (None, 256, 256, 96) 0           batch_normalization_37[0][0]     
                                                                 up_sampling2d_19[0][0]           
__________________________________________________________________________________________________
dropout_19 (Dropout)            (None, 256, 256, 96) 0           concatenate_19[0][0]             
__________________________________________________________________________________________________
conv2d_75 (Conv2D)              (None, 256, 256, 32) 27680       dropout_19[0][0]                 
__________________________________________________________________________________________________
conv2d_76 (Conv2D)              (None, 256, 256, 1)  33          conv2d_75[0][0]                  
==================================================================================================
Total params: 490,689
Trainable params: 489,985
Non-trainable params: 704
__________________________________________________________________________________________________
10 32 0.0001
Epoch 1/10
 - 1220s - loss: 3.1641e-04 - val_loss: 5.1170e-05
Epoch 2/10
…
