…
noisy array bytes = 60685549568
Test loss = 5.1116738e-05
Plotting data. Saving to: ../outputs/picola_script_outputs/picola_data.png
<generator object batch_generator at 0x2b562c01a888>
(223497, 256, 256, 1)
(8000, 256, 256, 1)
6984
training network wiener (no dropout) 

unet_simple lr = 0.0001
__________________________________________________________________________________________________
Layer (type)                    Output Shape         Param #     Connected to                     
==================================================================================================
input_1 (InputLayer)            (None, 256, 256, 1)  0                                            
__________________________________________________________________________________________________
conv2d_1 (Conv2D)               (None, 256, 256, 32) 320         input_1[0][0]                    
__________________________________________________________________________________________________
batch_normalization_1 (BatchNor (None, 256, 256, 32) 128         conv2d_1[0][0]                   
__________________________________________________________________________________________________
average_pooling2d_1 (AveragePoo (None, 128, 128, 32) 0           batch_normalization_1[0][0]      
__________________________________________________________________________________________________
conv2d_2 (Conv2D)               (None, 128, 128, 64) 18496       average_pooling2d_1[0][0]        
__________________________________________________________________________________________________
batch_normalization_2 (BatchNor (None, 128, 128, 64) 256         conv2d_2[0][0]                   
__________________________________________________________________________________________________
average_pooling2d_2 (AveragePoo (None, 64, 64, 64)   0           batch_normalization_2[0][0]      
__________________________________________________________________________________________________
conv2d_3 (Conv2D)               (None, 64, 64, 128)  73856       average_pooling2d_2[0][0]        
__________________________________________________________________________________________________
batch_normalization_3 (BatchNor (None, 64, 64, 128)  512         conv2d_3[0][0]                   
__________________________________________________________________________________________________
up_sampling2d_1 (UpSampling2D)  (None, 128, 128, 128 0           batch_normalization_3[0][0]      
__________________________________________________________________________________________________
concatenate_1 (Concatenate)     (None, 128, 128, 192 0           batch_normalization_2[0][0]      
                                                                 up_sampling2d_1[0][0]            
__________________________________________________________________________________________________
batch_normalization_4 (BatchNor (None, 128, 128, 192 768         concatenate_1[0][0]              
__________________________________________________________________________________________________
conv2d_4 (Conv2D)               (None, 128, 128, 64) 110656      batch_normalization_4[0][0]      
__________________________________________________________________________________________________
up_sampling2d_2 (UpSampling2D)  (None, 256, 256, 64) 0           conv2d_4[0][0]                   
__________________________________________________________________________________________________
concatenate_2 (Concatenate)     (None, 256, 256, 96) 0           batch_normalization_1[0][0]      
                                                                 up_sampling2d_2[0][0]            
__________________________________________________________________________________________________
batch_normalization_5 (BatchNor (None, 256, 256, 96) 384         concatenate_2[0][0]              
__________________________________________________________________________________________________
conv2d_5 (Conv2D)               (None, 256, 256, 32) 27680       batch_normalization_5[0][0]      
__________________________________________________________________________________________________
conv2d_6 (Conv2D)               (None, 256, 256, 1)  33          conv2d_5[0][0]                   
==================================================================================================
Total params: 233,089
Trainable params: 232,065
Non-trainable params: 1,024
__________________________________________________________________________________________________
10 32 0.0001
Epoch 1/10
Using TensorFlow backend.
 - 1090s - loss: 7.3093e-05 - val_loss: 5.8653e-05
…
 - 1087s - loss: 5.6302e-05 - val_loss: 5.6138e-05
Epoch 7/10
 - 1088s - loss: 5.6278e-05 - val_loss: 5.5765e-05
Epoch 8/10
 - 1087s - loss: 5.6261e-05 - val_loss: 5.6144e-05
Epoch 9/10
 - 1088s - loss: 5.6270e-05 - val_loss: 5.5861e-05
Epoch 10/10
 - 1088s - loss: 5.6266e-05 - val_loss: 5.5731e-05
unet lr = 0.0001
__________________________________________________________________________________________________
Layer (type)                    Output Shape         Param #     Connected to                     
==================================================================================================
input_3 (InputLayer)            (None, 256, 256, 1)  0                                            
__________________________________________________________________________________________________
conv2d_13 (Conv2D)              (None, 256, 256, 32) 320         input_3[0][0]                    
__________________________________________________________________________________________________
batch_normalization_11 (BatchNo (None, 256, 256, 32) 128         conv2d_13[0][0]                  
__________________________________________________________________________________________________
conv2d_14 (Conv2D)              (None, 256, 256, 32) 9248        batch_normalization_11[0][0]     
__________________________________________________________________________________________________
batch_normalization_12 (BatchNo (None, 256, 256, 32) 128         conv2d_14[0][0]                  
__________________________________________________________________________________________________
average_pooling2d_5 (AveragePoo (None, 128, 128, 32) 0           batch_normalization_12[0][0]     
__________________________________________________________________________________________________
conv2d_15 (Conv2D)              (None, 128, 128, 64) 18496       average_pooling2d_5[0][0]        
__________________________________________________________________________________________________
batch_normalization_13 (BatchNo (None, 128, 128, 64) 256         conv2d_15[0][0]                  
__________________________________________________________________________________________________
conv2d_16 (Conv2D)              (None, 128, 128, 64) 36928       batch_normalization_13[0][0]     
__________________________________________________________________________________________________
batch_normalization_14 (BatchNo (None, 128, 128, 64) 256         conv2d_16[0][0]                  
__________________________________________________________________________________________________
average_pooling2d_6 (AveragePoo (None, 64, 64, 64)   0           batch_normalization_14[0][0]     
__________________________________________________________________________________________________
conv2d_17 (Conv2D)              (None, 64, 64, 128)  73856       average_pooling2d_6[0][0]        
__________________________________________________________________________________________________
batch_normalization_15 (BatchNo (None, 64, 64, 128)  512         conv2d_17[0][0]                  
__________________________________________________________________________________________________
conv2d_18 (Conv2D)              (None, 64, 64, 128)  147584      batch_normalization_15[0][0]     
__________________________________________________________________________________________________
batch_normalization_16 (BatchNo (None, 64, 64, 128)  512         conv2d_18[0][0]                  
__________________________________________________________________________________________________
up_sampling2d_5 (UpSampling2D)  (None, 128, 128, 128 0           batch_normalization_16[0][0]     
__________________________________________________________________________________________________
concatenate_5 (Concatenate)     (None, 128, 128, 192 0           batch_normalization_14[0][0]     
                                                                 up_sampling2d_5[0][0]            
__________________________________________________________________________________________________
batch_normalization_17 (BatchNo (None, 128, 128, 192 768         concatenate_5[0][0]              
__________________________________________________________________________________________________
conv2d_19 (Conv2D)              (None, 128, 128, 64) 110656      batch_normalization_17[0][0]     
__________________________________________________________________________________________________
conv2d_20 (Conv2D)              (None, 128, 128, 64) 36928       conv2d_19[0][0]                  
__________________________________________________________________________________________________
up_sampling2d_6 (UpSampling2D)  (None, 256, 256, 64) 0           conv2d_20[0][0]                  
__________________________________________________________________________________________________
concatenate_6 (Concatenate)     (None, 256, 256, 96) 0           batch_normalization_12[0][0]     
                                                                 up_sampling2d_6[0][0]            
__________________________________________________________________________________________________
conv2d_21 (Conv2D)              (None, 256, 256, 32) 27680       concatenate_6[0][0]              
__________________________________________________________________________________________________
conv2d_22 (Conv2D)              (None, 256, 256, 32) 9248        conv2d_21[0][0]                  
__________________________________________________________________________________________________
conv2d_23 (Conv2D)              (None, 256, 256, 1)  33          conv2d_22[0][0]                  
==================================================================================================
Total params: 473,537
Trainable params: 472,257
Non-trainable params: 1,280
__________________________________________________________________________________________________
10 32 0.0001
Epoch 1/10
 - 1471s - loss: 8.3736e-05 - val_loss: 4.9781e-05
Epoch 2/10
…
Epoch 7/10
 - 1475s - loss: 4.8641e-05 - val_loss: 4.8100e-05
Epoch 8/10
 - 1475s - loss: 4.8616e-05 - val_loss: 4.8463e-05
Epoch 9/10
 - 1474s - loss: 4.8616e-05 - val_loss: 4.8221e-05
Epoch 10/10
 - 1475s - loss: 4.8609e-05 - val_loss: 4.8018e-05
unet_simple_deep lr = 0.0001
__________________________________________________________________________________________________
Layer (type)                    Output Shape         Param #     Connected to                     
==================================================================================================
input_5 (InputLayer)            (None, 256, 256, 1)  0                                            
__________________________________________________________________________________________________
conv2d_35 (Conv2D)              (None, 256, 256, 32) 320         input_5[0][0]                    
__________________________________________________________________________________________________
batch_normalization_27 (BatchNo (None, 256, 256, 32) 128         conv2d_35[0][0]                  
__________________________________________________________________________________________________
average_pooling2d_9 (AveragePoo (None, 128, 128, 32) 0           batch_normalization_27[0][0]     
__________________________________________________________________________________________________
conv2d_36 (Conv2D)              (None, 128, 128, 64) 18496       average_pooling2d_9[0][0]        
__________________________________________________________________________________________________
batch_normalization_28 (BatchNo (None, 128, 128, 64) 256         conv2d_36[0][0]                  
__________________________________________________________________________________________________
average_pooling2d_10 (AveragePo (None, 64, 64, 64)   0           batch_normalization_28[0][0]     
__________________________________________________________________________________________________
conv2d_37 (Conv2D)              (None, 64, 64, 128)  73856       average_pooling2d_10[0][0]       
__________________________________________________________________________________________________
batch_normalization_29 (BatchNo (None, 64, 64, 128)  512         conv2d_37[0][0]                  
__________________________________________________________________________________________________
average_pooling2d_11 (AveragePo (None, 32, 32, 128)  0           batch_normalization_29[0][0]     
__________________________________________________________________________________________________
conv2d_38 (Conv2D)              (None, 32, 32, 128)  147584      average_pooling2d_11[0][0]       
__________________________________________________________________________________________________
batch_normalization_30 (BatchNo (None, 32, 32, 128)  512         conv2d_38[0][0]                  
__________________________________________________________________________________________________
up_sampling2d_9 (UpSampling2D)  (None, 64, 64, 128)  0           batch_normalization_30[0][0]     
__________________________________________________________________________________________________
concatenate_9 (Concatenate)     (None, 64, 64, 256)  0           batch_normalization_29[0][0]     
                                                                 up_sampling2d_9[0][0]            
__________________________________________________________________________________________________
batch_normalization_31 (BatchNo (None, 64, 64, 256)  1024        concatenate_9[0][0]              
__________________________________________________________________________________________________
conv2d_39 (Conv2D)              (None, 64, 64, 64)   147520      batch_normalization_31[0][0]     
__________________________________________________________________________________________________
up_sampling2d_10 (UpSampling2D) (None, 128, 128, 64) 0           conv2d_39[0][0]                  
__________________________________________________________________________________________________
concatenate_10 (Concatenate)    (None, 128, 128, 128 0           batch_normalization_28[0][0]     
                                                                 up_sampling2d_10[0][0]           
__________________________________________________________________________________________________
batch_normalization_32 (BatchNo (None, 128, 128, 128 512         concatenate_10[0][0]             
__________________________________________________________________________________________________
conv2d_40 (Conv2D)              (None, 128, 128, 64) 73792       batch_normalization_32[0][0]     
__________________________________________________________________________________________________
up_sampling2d_11 (UpSampling2D) (None, 256, 256, 64) 0           conv2d_40[0][0]                  
__________________________________________________________________________________________________
concatenate_11 (Concatenate)    (None, 256, 256, 96) 0           batch_normalization_27[0][0]     
                                                                 up_sampling2d_11[0][0]           
__________________________________________________________________________________________________
batch_normalization_33 (BatchNo (None, 256, 256, 96) 384         concatenate_11[0][0]             
__________________________________________________________________________________________________
conv2d_41 (Conv2D)              (None, 256, 256, 32) 27680       batch_normalization_33[0][0]     
__________________________________________________________________________________________________
conv2d_42 (Conv2D)              (None, 256, 256, 1)  33          conv2d_41[0][0]                  
==================================================================================================
Total params: 492,609
Trainable params: 490,945
Non-trainable params: 1,664
__________________________________________________________________________________________________
10 32 0.0001
Epoch 1/10
 - 1105s - loss: 2.3137e-04 - val_loss: 5.7884e-05
Epoch 2/10
…
