…
clean array bytes = 60685549568
noisy array bytes = 60685549568
Plotting data. Saving to: ../outputs/picola_script_outputs/picola_data.png
<generator object batch_generator at 0x2af99b0a2728>
(227497, 256, 256, 1)
(4000, 256, 256, 1)
7109
training network KS 

unet_simple lr = 0.0001
__________________________________________________________________________________________________
Layer (type)                    Output Shape         Param #     Connected to                     
==================================================================================================
input_1 (InputLayer)            (None, 256, 256, 1)  0                                            
__________________________________________________________________________________________________
conv2d_1 (Conv2D)               (None, 256, 256, 32) 320         input_1[0][0]                    
__________________________________________________________________________________________________
batch_normalization_1 (BatchNor (None, 256, 256, 32) 128         conv2d_1[0][0]                   
__________________________________________________________________________________________________
average_pooling2d_1 (AveragePoo (None, 128, 128, 32) 0           batch_normalization_1[0][0]      
__________________________________________________________________________________________________
conv2d_2 (Conv2D)               (None, 128, 128, 64) 18496       average_pooling2d_1[0][0]        
__________________________________________________________________________________________________
batch_normalization_2 (BatchNor (None, 128, 128, 64) 256         conv2d_2[0][0]                   
__________________________________________________________________________________________________
average_pooling2d_2 (AveragePoo (None, 64, 64, 64)   0           batch_normalization_2[0][0]      
__________________________________________________________________________________________________
conv2d_3 (Conv2D)               (None, 64, 64, 128)  73856       average_pooling2d_2[0][0]        
__________________________________________________________________________________________________
batch_normalization_3 (BatchNor (None, 64, 64, 128)  512         conv2d_3[0][0]                   
__________________________________________________________________________________________________
up_sampling2d_1 (UpSampling2D)  (None, 128, 128, 128 0           batch_normalization_3[0][0]      
__________________________________________________________________________________________________
concatenate_1 (Concatenate)     (None, 128, 128, 192 0           batch_normalization_2[0][0]      
                                                                 up_sampling2d_1[0][0]            
__________________________________________________________________________________________________
dropout_1 (Dropout)             (None, 128, 128, 192 0           concatenate_1[0][0]              
__________________________________________________________________________________________________
conv2d_4 (Conv2D)               (None, 128, 128, 64) 110656      dropout_1[0][0]                  
__________________________________________________________________________________________________
up_sampling2d_2 (UpSampling2D)  (None, 256, 256, 64) 0           conv2d_4[0][0]                   
__________________________________________________________________________________________________
concatenate_2 (Concatenate)     (None, 256, 256, 96) 0           batch_normalization_1[0][0]      
                                                                 up_sampling2d_2[0][0]            
__________________________________________________________________________________________________
dropout_2 (Dropout)             (None, 256, 256, 96) 0           concatenate_2[0][0]              
__________________________________________________________________________________________________
conv2d_5 (Conv2D)               (None, 256, 256, 32) 27680       dropout_2[0][0]                  
__________________________________________________________________________________________________
conv2d_6 (Conv2D)               (None, 256, 256, 1)  33          conv2d_5[0][0]                   
==================================================================================================
Total params: 231,937
Trainable params: 231,489
Non-trainable params: 448
__________________________________________________________________________________________________
10 32 0.0001
Epoch 1/10
 - 1196s - loss: 2.2968e-04 - val_loss: 5.0666e-05
Epoch 2/10
…
Epoch 7/10
 - 1191s - loss: 4.9120e-05 - val_loss: 4.9468e-05
Epoch 8/10
 - 1190s - loss: 4.8885e-05 - val_loss: 4.9593e-05
Epoch 9/10
 - 1190s - loss: 4.8757e-05 - val_loss: 4.8757e-05
Epoch 10/10
 - 1191s - loss: 4.8651e-05 - val_loss: 4.9048e-05
Epoch 1/10
unet lr = 0.0001
__________________________________________________________________________________________________
Layer (type)                    Output Shape         Param #     Connected to                     
==================================================================================================
input_3 (InputLayer)            (None, 256, 256, 1)  0                                            
__________________________________________________________________________________________________
conv2d_13 (Conv2D)              (None, 256, 256, 32) 320         input_3[0][0]                    
__________________________________________________________________________________________________
batch_normalization_7 (BatchNor (None, 256, 256, 32) 128         conv2d_13[0][0]                  
__________________________________________________________________________________________________
conv2d_14 (Conv2D)              (None, 256, 256, 32) 9248        batch_normalization_7[0][0]      
__________________________________________________________________________________________________
batch_normalization_8 (BatchNor (None, 256, 256, 32) 128         conv2d_14[0][0]                  
__________________________________________________________________________________________________
average_pooling2d_5 (AveragePoo (None, 128, 128, 32) 0           batch_normalization_8[0][0]      
__________________________________________________________________________________________________
conv2d_15 (Conv2D)              (None, 128, 128, 64) 18496       average_pooling2d_5[0][0]        
__________________________________________________________________________________________________
batch_normalization_9 (BatchNor (None, 128, 128, 64) 256         conv2d_15[0][0]                  
__________________________________________________________________________________________________
conv2d_16 (Conv2D)              (None, 128, 128, 64) 36928       batch_normalization_9[0][0]      
__________________________________________________________________________________________________
batch_normalization_10 (BatchNo (None, 128, 128, 64) 256         conv2d_16[0][0]                  
__________________________________________________________________________________________________
average_pooling2d_6 (AveragePoo (None, 64, 64, 64)   0           batch_normalization_10[0][0]     
__________________________________________________________________________________________________
conv2d_17 (Conv2D)              (None, 64, 64, 128)  73856       average_pooling2d_6[0][0]        
__________________________________________________________________________________________________
batch_normalization_11 (BatchNo (None, 64, 64, 128)  512         conv2d_17[0][0]                  
__________________________________________________________________________________________________
conv2d_18 (Conv2D)              (None, 64, 64, 128)  147584      batch_normalization_11[0][0]     
__________________________________________________________________________________________________
batch_normalization_12 (BatchNo (None, 64, 64, 128)  512         conv2d_18[0][0]                  
__________________________________________________________________________________________________
up_sampling2d_5 (UpSampling2D)  (None, 128, 128, 128 0           batch_normalization_12[0][0]     
__________________________________________________________________________________________________
concatenate_5 (Concatenate)     (None, 128, 128, 192 0           batch_normalization_10[0][0]     
                                                                 up_sampling2d_5[0][0]            
__________________________________________________________________________________________________
dropout_5 (Dropout)             (None, 128, 128, 192 0           concatenate_5[0][0]              
__________________________________________________________________________________________________
conv2d_19 (Conv2D)              (None, 128, 128, 64) 110656      dropout_5[0][0]                  
__________________________________________________________________________________________________
conv2d_20 (Conv2D)              (None, 128, 128, 64) 36928       conv2d_19[0][0]                  
__________________________________________________________________________________________________
up_sampling2d_6 (UpSampling2D)  (None, 256, 256, 64) 0           conv2d_20[0][0]                  
__________________________________________________________________________________________________
concatenate_6 (Concatenate)     (None, 256, 256, 96) 0           batch_normalization_8[0][0]      
                                                                 up_sampling2d_6[0][0]            
__________________________________________________________________________________________________
dropout_6 (Dropout)             (None, 256, 256, 96) 0           concatenate_6[0][0]              
__________________________________________________________________________________________________
conv2d_21 (Conv2D)              (None, 256, 256, 32) 27680       dropout_6[0][0]                  
__________________________________________________________________________________________________
conv2d_22 (Conv2D)              (None, 256, 256, 32) 9248        conv2d_21[0][0]                  
__________________________________________________________________________________________________
conv2d_23 (Conv2D)              (None, 256, 256, 1)  33          conv2d_22[0][0]                  
==================================================================================================
Total params: 472,769
Trainable params: 471,873
Non-trainable params: 896
__________________________________________________________________________________________________
10 32 0.0001
Epoch 1/10
 - 1681s - loss: 2.1191e-04 - val_loss: 5.6429e-05
Epoch 2/10
…
Epoch 7/10
 - 1682s - loss: 4.8567e-05 - val_loss: 4.8900e-05
Epoch 8/10
 - 1681s - loss: 4.8467e-05 - val_loss: 4.9149e-05
Epoch 9/10
 - 1681s - loss: 4.8478e-05 - val_loss: 4.8346e-05
Epoch 10/10
 - 1681s - loss: 4.8433e-05 - val_loss: 4.8895e-05
unet_simple_deep lr = 0.0001
__________________________________________________________________________________________________
Layer (type)                    Output Shape         Param #     Connected to                     
==================================================================================================
input_5 (InputLayer)            (None, 256, 256, 1)  0                                            
__________________________________________________________________________________________________
conv2d_35 (Conv2D)              (None, 256, 256, 32) 320         input_5[0][0]                    
__________________________________________________________________________________________________
batch_normalization_19 (BatchNo (None, 256, 256, 32) 128         conv2d_35[0][0]                  
__________________________________________________________________________________________________
average_pooling2d_9 (AveragePoo (None, 128, 128, 32) 0           batch_normalization_19[0][0]     
__________________________________________________________________________________________________
conv2d_36 (Conv2D)              (None, 128, 128, 64) 18496       average_pooling2d_9[0][0]        
__________________________________________________________________________________________________
batch_normalization_20 (BatchNo (None, 128, 128, 64) 256         conv2d_36[0][0]                  
__________________________________________________________________________________________________
average_pooling2d_10 (AveragePo (None, 64, 64, 64)   0           batch_normalization_20[0][0]     
__________________________________________________________________________________________________
conv2d_37 (Conv2D)              (None, 64, 64, 128)  73856       average_pooling2d_10[0][0]       
__________________________________________________________________________________________________
batch_normalization_21 (BatchNo (None, 64, 64, 128)  512         conv2d_37[0][0]                  
__________________________________________________________________________________________________
average_pooling2d_11 (AveragePo (None, 32, 32, 128)  0           batch_normalization_21[0][0]     
__________________________________________________________________________________________________
conv2d_38 (Conv2D)              (None, 32, 32, 128)  147584      average_pooling2d_11[0][0]       
__________________________________________________________________________________________________
batch_normalization_22 (BatchNo (None, 32, 32, 128)  512         conv2d_38[0][0]                  
__________________________________________________________________________________________________
up_sampling2d_9 (UpSampling2D)  (None, 64, 64, 128)  0           batch_normalization_22[0][0]     
__________________________________________________________________________________________________
concatenate_9 (Concatenate)     (None, 64, 64, 256)  0           batch_normalization_21[0][0]     
                                                                 up_sampling2d_9[0][0]            
__________________________________________________________________________________________________
dropout_9 (Dropout)             (None, 64, 64, 256)  0           concatenate_9[0][0]              
__________________________________________________________________________________________________
conv2d_39 (Conv2D)              (None, 64, 64, 64)   147520      dropout_9[0][0]                  
__________________________________________________________________________________________________
up_sampling2d_10 (UpSampling2D) (None, 128, 128, 64) 0           conv2d_39[0][0]                  
__________________________________________________________________________________________________
concatenate_10 (Concatenate)    (None, 128, 128, 128 0           batch_normalization_20[0][0]     
                                                                 up_sampling2d_10[0][0]           
__________________________________________________________________________________________________
dropout_10 (Dropout)            (None, 128, 128, 128 0           concatenate_10[0][0]             
__________________________________________________________________________________________________
conv2d_40 (Conv2D)              (None, 128, 128, 64) 73792       dropout_10[0][0]                 
__________________________________________________________________________________________________
up_sampling2d_11 (UpSampling2D) (None, 256, 256, 64) 0           conv2d_40[0][0]                  
__________________________________________________________________________________________________
concatenate_11 (Concatenate)    (None, 256, 256, 96) 0           batch_normalization_19[0][0]     
                                                                 up_sampling2d_11[0][0]           
__________________________________________________________________________________________________
dropout_11 (Dropout)            (None, 256, 256, 96) 0           concatenate_11[0][0]             
__________________________________________________________________________________________________
conv2d_41 (Conv2D)              (None, 256, 256, 32) 27680       dropout_11[0][0]                 
__________________________________________________________________________________________________
conv2d_42 (Conv2D)              (None, 256, 256, 1)  33          conv2d_41[0][0]                  
==================================================================================================
Total params: 490,689
Trainable params: 489,985
Non-trainable params: 704
__________________________________________________________________________________________________
10 32 0.0001
Epoch 1/10
 - 1211s - loss: 1.5852e-04 - val_loss: 5.0579e-05
Epoch 2/10
…
