…
Plotting data. Saving to: ../outputs/picola_script_outputs/picola_data.png
<generator object batch_generator at 0x2b7003150fc0>
(368160, 256, 256, 1)
(8000, 256, 256, 1)
11505
training network wiener (no dropout) 


Dropout = 0.15
unet deep lr = 1e-05
using dropout: 0.15
__________________________________________________________________________________________________
Layer (type)                    Output Shape         Param #     Connected to                     
==================================================================================================
input_1 (InputLayer)            (None, 256, 256, 1)  0                                            
__________________________________________________________________________________________________
conv2d_1 (Conv2D)               (None, 256, 256, 32) 320         input_1[0][0]                    
__________________________________________________________________________________________________
batch_normalization_1 (BatchNor (None, 256, 256, 32) 128         conv2d_1[0][0]                   
__________________________________________________________________________________________________
average_pooling2d_1 (AveragePoo (None, 128, 128, 32) 0           batch_normalization_1[0][0]      
__________________________________________________________________________________________________
conv2d_2 (Conv2D)               (None, 128, 128, 64) 18496       average_pooling2d_1[0][0]        
__________________________________________________________________________________________________
batch_normalization_2 (BatchNor (None, 128, 128, 64) 256         conv2d_2[0][0]                   
__________________________________________________________________________________________________
average_pooling2d_2 (AveragePoo (None, 64, 64, 64)   0           batch_normalization_2[0][0]      
__________________________________________________________________________________________________
conv2d_3 (Conv2D)               (None, 64, 64, 128)  73856       average_pooling2d_2[0][0]        
__________________________________________________________________________________________________
batch_normalization_3 (BatchNor (None, 64, 64, 128)  512         conv2d_3[0][0]                   
__________________________________________________________________________________________________
average_pooling2d_3 (AveragePoo (None, 32, 32, 128)  0           batch_normalization_3[0][0]      
__________________________________________________________________________________________________
conv2d_4 (Conv2D)               (None, 32, 32, 128)  147584      average_pooling2d_3[0][0]        
__________________________________________________________________________________________________
batch_normalization_4 (BatchNor (None, 32, 32, 128)  512         conv2d_4[0][0]                   
__________________________________________________________________________________________________
up_sampling2d_1 (UpSampling2D)  (None, 64, 64, 128)  0           batch_normalization_4[0][0]      
__________________________________________________________________________________________________
concatenate_1 (Concatenate)     (None, 64, 64, 256)  0           batch_normalization_3[0][0]      
                                                                 up_sampling2d_1[0][0]            
__________________________________________________________________________________________________
dropout_1 (Dropout)             (None, 64, 64, 256)  0           concatenate_1[0][0]              
__________________________________________________________________________________________________
conv2d_5 (Conv2D)               (None, 64, 64, 64)   147520      dropout_1[0][0]                  
__________________________________________________________________________________________________
up_sampling2d_2 (UpSampling2D)  (None, 128, 128, 64) 0           conv2d_5[0][0]                   
__________________________________________________________________________________________________
concatenate_2 (Concatenate)     (None, 128, 128, 128 0           batch_normalization_2[0][0]      
                                                                 up_sampling2d_2[0][0]            
__________________________________________________________________________________________________
dropout_2 (Dropout)             (None, 128, 128, 128 0           concatenate_2[0][0]              
__________________________________________________________________________________________________
conv2d_6 (Conv2D)               (None, 128, 128, 64) 73792       dropout_2[0][0]                  
__________________________________________________________________________________________________
up_sampling2d_3 (UpSampling2D)  (None, 256, 256, 64) 0           conv2d_6[0][0]                   
__________________________________________________________________________________________________
concatenate_3 (Concatenate)     (None, 256, 256, 96) 0           batch_normalization_1[0][0]      
                                                                 up_sampling2d_3[0][0]            
__________________________________________________________________________________________________
dropout_3 (Dropout)             (None, 256, 256, 96) 0           concatenate_3[0][0]              
__________________________________________________________________________________________________
conv2d_7 (Conv2D)               (None, 256, 256, 32) 27680       dropout_3[0][0]                  
__________________________________________________________________________________________________
conv2d_8 (Conv2D)               (None, 256, 256, 1)  33          conv2d_7[0][0]                   
==================================================================================================
Total params: 490,689
Trainable params: 489,985
Non-trainable params: 704
__________________________________________________________________________________________________
10 32 1e-05
Epoch 1/10
 - 1970s - loss: 7.1312e-04 - val_loss: 4.4131e-04
Epoch 2/10
…
