…
2019-07-07 13:51:45.147520: I tensorflow/core/common_runtime/gpu/gpu_device.cc:1097] Created TensorFlow device (/job:localhost/replica:0/task:0/device:GPU:0 with 14941 MB memory) -> physical GPU (device: 0, name: Tesla V100-PCIE-16GB, pci bus id: 0000:3b:00.0, compute capability: 7.0)
Plotting data. Saving to: ../outputs/picola_script_outputs/picola_data.png
<generator object batch_generator at 0x2bea5ed0c0f8>
(368160, 256, 256, 1)
(8000, 256, 256, 1)
11505
unet simplest deeeper lr = 3e-05
__________________________________________________________________________________________________
Layer (type)                    Output Shape         Param #     Connected to                     
==================================================================================================
input_1 (InputLayer)            (None, 256, 256, 1)  0                                            
__________________________________________________________________________________________________
conv2d_1 (Conv2D)               (None, 256, 256, 16) 160         input_1[0][0]                    
__________________________________________________________________________________________________
batch_normalization_1 (BatchNor (None, 256, 256, 16) 64          conv2d_1[0][0]                   
__________________________________________________________________________________________________
average_pooling2d_1 (AveragePoo (None, 128, 128, 16) 0           batch_normalization_1[0][0]      
__________________________________________________________________________________________________
conv2d_2 (Conv2D)               (None, 128, 128, 32) 4640        average_pooling2d_1[0][0]        
__________________________________________________________________________________________________
batch_normalization_2 (BatchNor (None, 128, 128, 32) 128         conv2d_2[0][0]                   
__________________________________________________________________________________________________
average_pooling2d_2 (AveragePoo (None, 64, 64, 32)   0           batch_normalization_2[0][0]      
__________________________________________________________________________________________________
conv2d_3 (Conv2D)               (None, 64, 64, 64)   18496       average_pooling2d_2[0][0]        
__________________________________________________________________________________________________
batch_normalization_3 (BatchNor (None, 64, 64, 64)   256         conv2d_3[0][0]                   
__________________________________________________________________________________________________
average_pooling2d_3 (AveragePoo (None, 32, 32, 64)   0           batch_normalization_3[0][0]      
__________________________________________________________________________________________________
conv2d_4 (Conv2D)               (None, 32, 32, 64)   36928       average_pooling2d_3[0][0]        
__________________________________________________________________________________________________
batch_normalization_4 (BatchNor (None, 32, 32, 64)   256         conv2d_4[0][0]                   
__________________________________________________________________________________________________
average_pooling2d_4 (AveragePoo (None, 16, 16, 64)   0           batch_normalization_4[0][0]      
__________________________________________________________________________________________________
conv2d_5 (Conv2D)               (None, 16, 16, 64)   36928       average_pooling2d_4[0][0]        
__________________________________________________________________________________________________
batch_normalization_5 (BatchNor (None, 16, 16, 64)   256         conv2d_5[0][0]                   
__________________________________________________________________________________________________
up_sampling2d_1 (UpSampling2D)  (None, 32, 32, 64)   0           batch_normalization_5[0][0]      
__________________________________________________________________________________________________
concatenate_1 (Concatenate)     (None, 32, 32, 128)  0           batch_normalization_4[0][0]      
                                                                 up_sampling2d_1[0][0]            
__________________________________________________________________________________________________
conv2d_6 (Conv2D)               (None, 32, 32, 64)   73792       concatenate_1[0][0]              
__________________________________________________________________________________________________
batch_normalization_6 (BatchNor (None, 32, 32, 64)   256         conv2d_6[0][0]                   
__________________________________________________________________________________________________
up_sampling2d_2 (UpSampling2D)  (None, 64, 64, 64)   0           batch_normalization_6[0][0]      
__________________________________________________________________________________________________
concatenate_2 (Concatenate)     (None, 64, 64, 128)  0           batch_normalization_3[0][0]      
                                                                 up_sampling2d_2[0][0]            
__________________________________________________________________________________________________
batch_normalization_7 (BatchNor (None, 64, 64, 128)  512         concatenate_2[0][0]              
__________________________________________________________________________________________________
conv2d_7 (Conv2D)               (None, 64, 64, 64)   73792       batch_normalization_7[0][0]      
__________________________________________________________________________________________________
up_sampling2d_3 (UpSampling2D)  (None, 128, 128, 64) 0           conv2d_7[0][0]                   
__________________________________________________________________________________________________
concatenate_3 (Concatenate)     (None, 128, 128, 96) 0           batch_normalization_2[0][0]      
                                                                 up_sampling2d_3[0][0]            
__________________________________________________________________________________________________
batch_normalization_8 (BatchNor (None, 128, 128, 96) 384         concatenate_3[0][0]              
__________________________________________________________________________________________________
conv2d_8 (Conv2D)               (None, 128, 128, 32) 27680       batch_normalization_8[0][0]      
__________________________________________________________________________________________________
up_sampling2d_4 (UpSampling2D)  (None, 256, 256, 32) 0           conv2d_8[0][0]                   
__________________________________________________________________________________________________
concatenate_4 (Concatenate)     (None, 256, 256, 48) 0           batch_normalization_1[0][0]      
                                                                 up_sampling2d_4[0][0]            
__________________________________________________________________________________________________
batch_normalization_9 (BatchNor (None, 256, 256, 48) 192         concatenate_4[0][0]              
__________________________________________________________________________________________________
conv2d_9 (Conv2D)               (None, 256, 256, 16) 6928        batch_normalization_9[0][0]      
__________________________________________________________________________________________________
conv2d_10 (Conv2D)              (None, 256, 256, 1)  17          conv2d_9[0][0]                   
==================================================================================================
Total params: 281,665
Trainable params: 280,513
Non-trainable params: 1,152
__________________________________________________________________________________________________
20 32 3e-05
Epoch 1/20
 - 1150s - loss: 4.1001e-04 - val_loss: 5.2774e-05
Epoch 2/20
…
 - 1154s - loss: 5.0323e-05 - val_loss: 4.9938e-05
Epoch 20/20
 - 1152s - loss: 5.0252e-05 - val_loss: 5.0133e-05
Saving losses
Save network
Test loss = 0.0013145588
Test pearson = (0.18985428, 0.0)
Result loss = 5.016694e-05
Result pearson = (0.3192704, 0.0)
Garbage collect: 42074
unet deeeper lr = 3e-05
__________________________________________________________________________________________________
Layer (type)                    Output Shape         Param #     Connected to                     
==================================================================================================
input_3 (InputLayer)            (None, 256, 256, 1)  0                                            
__________________________________________________________________________________________________
conv2d_21 (Conv2D)              (None, 256, 256, 16) 160         input_3[0][0]                    
__________________________________________________________________________________________________
batch_normalization_19 (BatchNo (None, 256, 256, 16) 64          conv2d_21[0][0]                  
__________________________________________________________________________________________________
average_pooling2d_9 (AveragePoo (None, 128, 128, 16) 0           batch_normalization_19[0][0]     
__________________________________________________________________________________________________
conv2d_22 (Conv2D)              (None, 128, 128, 32) 4640        average_pooling2d_9[0][0]        
__________________________________________________________________________________________________
batch_normalization_20 (BatchNo (None, 128, 128, 32) 128         conv2d_22[0][0]                  
__________________________________________________________________________________________________
average_pooling2d_10 (AveragePo (None, 64, 64, 32)   0           batch_normalization_20[0][0]     
__________________________________________________________________________________________________
conv2d_23 (Conv2D)              (None, 64, 64, 64)   18496       average_pooling2d_10[0][0]       
__________________________________________________________________________________________________
batch_normalization_21 (BatchNo (None, 64, 64, 64)   256         conv2d_23[0][0]                  
__________________________________________________________________________________________________
average_pooling2d_11 (AveragePo (None, 32, 32, 64)   0           batch_normalization_21[0][0]     
__________________________________________________________________________________________________
conv2d_24 (Conv2D)              (None, 32, 32, 128)  73856       average_pooling2d_11[0][0]       
__________________________________________________________________________________________________
batch_normalization_22 (BatchNo (None, 32, 32, 128)  512         conv2d_24[0][0]                  
__________________________________________________________________________________________________
average_pooling2d_12 (AveragePo (None, 16, 16, 128)  0           batch_normalization_22[0][0]     
__________________________________________________________________________________________________
conv2d_25 (Conv2D)              (None, 16, 16, 256)  295168      average_pooling2d_12[0][0]       
__________________________________________________________________________________________________
batch_normalization_23 (BatchNo (None, 16, 16, 256)  1024        conv2d_25[0][0]                  
__________________________________________________________________________________________________
up_sampling2d_9 (UpSampling2D)  (None, 32, 32, 256)  0           batch_normalization_23[0][0]     
__________________________________________________________________________________________________
concatenate_9 (Concatenate)     (None, 32, 32, 384)  0           batch_normalization_22[0][0]     
                                                                 up_sampling2d_9[0][0]            
__________________________________________________________________________________________________
conv2d_26 (Conv2D)              (None, 32, 32, 128)  442496      concatenate_9[0][0]              
__________________________________________________________________________________________________
batch_normalization_24 (BatchNo (None, 32, 32, 128)  512         conv2d_26[0][0]                  
__________________________________________________________________________________________________
up_sampling2d_10 (UpSampling2D) (None, 64, 64, 128)  0           batch_normalization_24[0][0]     
__________________________________________________________________________________________________
concatenate_10 (Concatenate)    (None, 64, 64, 192)  0           batch_normalization_21[0][0]     
                                                                 up_sampling2d_10[0][0]           
__________________________________________________________________________________________________
batch_normalization_25 (BatchNo (None, 64, 64, 192)  768         concatenate_10[0][0]             
__________________________________________________________________________________________________
conv2d_27 (Conv2D)              (None, 64, 64, 64)   110656      batch_normalization_25[0][0]     
__________________________________________________________________________________________________
up_sampling2d_11 (UpSampling2D) (None, 128, 128, 64) 0           conv2d_27[0][0]                  
__________________________________________________________________________________________________
concatenate_11 (Concatenate)    (None, 128, 128, 96) 0           batch_normalization_20[0][0]     
                                                                 up_sampling2d_11[0][0]           
__________________________________________________________________________________________________
batch_normalization_26 (BatchNo (None, 128, 128, 96) 384         concatenate_11[0][0]             
__________________________________________________________________________________________________
conv2d_28 (Conv2D)              (None, 128, 128, 32) 27680       batch_normalization_26[0][0]     
__________________________________________________________________________________________________
up_sampling2d_12 (UpSampling2D) (None, 256, 256, 32) 0           conv2d_28[0][0]                  
__________________________________________________________________________________________________
concatenate_12 (Concatenate)    (None, 256, 256, 48) 0           batch_normalization_19[0][0]     
                                                                 up_sampling2d_12[0][0]           
__________________________________________________________________________________________________
batch_normalization_27 (BatchNo (None, 256, 256, 48) 192         concatenate_12[0][0]             
__________________________________________________________________________________________________
conv2d_29 (Conv2D)              (None, 256, 256, 16) 6928        batch_normalization_27[0][0]     
__________________________________________________________________________________________________
conv2d_30 (Conv2D)              (None, 256, 256, 1)  17          conv2d_29[0][0]                  
==================================================================================================
Total params: 983,937
Trainable params: 982,017
Non-trainable params: 1,920
__________________________________________________________________________________________________
20 32 3e-05
Epoch 1/20
 - 1217s - loss: 3.2192e-04 - val_loss: 5.9910e-05
Epoch 2/20
…
