…
2019-07-03 13:39:22.963986: I tensorflow/core/common_runtime/gpu/gpu_device.cc:1097] Created TensorFlow device (/job:localhost/replica:0/task:0/device:GPU:0 with 14941 MB memory) -> physical GPU (device: 0, name: Tesla V100-PCIE-16GB, pci bus id: 0000:3b:00.0, compute capability: 7.0)
Plotting data. Saving to: ../outputs/picola_script_outputs/picola_data.png
<generator object batch_generator at 0x2afb1980c0f8>
(368160, 256, 256, 1)
(8000, 256, 256, 1)
11505
unet simplest deeeper lr = 1e-05
__________________________________________________________________________________________________
Layer (type)                    Output Shape         Param #     Connected to                     
==================================================================================================
input_1 (InputLayer)            (None, 256, 256, 1)  0                                            
__________________________________________________________________________________________________
conv2d_1 (Conv2D)               (None, 256, 256, 16) 160         input_1[0][0]                    
__________________________________________________________________________________________________
batch_normalization_1 (BatchNor (None, 256, 256, 16) 64          conv2d_1[0][0]                   
__________________________________________________________________________________________________
average_pooling2d_1 (AveragePoo (None, 128, 128, 16) 0           batch_normalization_1[0][0]      
__________________________________________________________________________________________________
conv2d_2 (Conv2D)               (None, 128, 128, 32) 4640        average_pooling2d_1[0][0]        
__________________________________________________________________________________________________
batch_normalization_2 (BatchNor (None, 128, 128, 32) 128         conv2d_2[0][0]                   
__________________________________________________________________________________________________
average_pooling2d_2 (AveragePoo (None, 64, 64, 32)   0           batch_normalization_2[0][0]      
__________________________________________________________________________________________________
conv2d_3 (Conv2D)               (None, 64, 64, 64)   18496       average_pooling2d_2[0][0]        
__________________________________________________________________________________________________
batch_normalization_3 (BatchNor (None, 64, 64, 64)   256         conv2d_3[0][0]                   
__________________________________________________________________________________________________
average_pooling2d_3 (AveragePoo (None, 32, 32, 64)   0           batch_normalization_3[0][0]      
__________________________________________________________________________________________________
conv2d_4 (Conv2D)               (None, 32, 32, 64)   36928       average_pooling2d_3[0][0]        
__________________________________________________________________________________________________
batch_normalization_4 (BatchNor (None, 32, 32, 64)   256         conv2d_4[0][0]                   
__________________________________________________________________________________________________
average_pooling2d_4 (AveragePoo (None, 16, 16, 64)   0           batch_normalization_4[0][0]      
__________________________________________________________________________________________________
conv2d_5 (Conv2D)               (None, 16, 16, 64)   36928       average_pooling2d_4[0][0]        
__________________________________________________________________________________________________
batch_normalization_5 (BatchNor (None, 16, 16, 64)   256         conv2d_5[0][0]                   
__________________________________________________________________________________________________
up_sampling2d_1 (UpSampling2D)  (None, 32, 32, 64)   0           batch_normalization_5[0][0]      
__________________________________________________________________________________________________
concatenate_1 (Concatenate)     (None, 32, 32, 128)  0           batch_normalization_4[0][0]      
                                                                 up_sampling2d_1[0][0]            
__________________________________________________________________________________________________
conv2d_6 (Conv2D)               (None, 32, 32, 64)   73792       concatenate_1[0][0]              
__________________________________________________________________________________________________
batch_normalization_6 (BatchNor (None, 32, 32, 64)   256         conv2d_6[0][0]                   
__________________________________________________________________________________________________
up_sampling2d_2 (UpSampling2D)  (None, 64, 64, 64)   0           batch_normalization_6[0][0]      
__________________________________________________________________________________________________
concatenate_2 (Concatenate)     (None, 64, 64, 128)  0           batch_normalization_3[0][0]      
                                                                 up_sampling2d_2[0][0]            
__________________________________________________________________________________________________
batch_normalization_7 (BatchNor (None, 64, 64, 128)  512         concatenate_2[0][0]              
__________________________________________________________________________________________________
conv2d_7 (Conv2D)               (None, 64, 64, 64)   73792       batch_normalization_7[0][0]      
__________________________________________________________________________________________________
up_sampling2d_3 (UpSampling2D)  (None, 128, 128, 64) 0           conv2d_7[0][0]                   
__________________________________________________________________________________________________
concatenate_3 (Concatenate)     (None, 128, 128, 96) 0           batch_normalization_2[0][0]      
                                                                 up_sampling2d_3[0][0]            
__________________________________________________________________________________________________
batch_normalization_8 (BatchNor (None, 128, 128, 96) 384         concatenate_3[0][0]              
__________________________________________________________________________________________________
conv2d_8 (Conv2D)               (None, 128, 128, 32) 27680       batch_normalization_8[0][0]      
__________________________________________________________________________________________________
up_sampling2d_4 (UpSampling2D)  (None, 256, 256, 32) 0           conv2d_8[0][0]                   
__________________________________________________________________________________________________
concatenate_4 (Concatenate)     (None, 256, 256, 48) 0           batch_normalization_1[0][0]      
                                                                 up_sampling2d_4[0][0]            
__________________________________________________________________________________________________
batch_normalization_9 (BatchNor (None, 256, 256, 48) 192         concatenate_4[0][0]              
__________________________________________________________________________________________________
conv2d_9 (Conv2D)               (None, 256, 256, 16) 6928        batch_normalization_9[0][0]      
__________________________________________________________________________________________________
conv2d_10 (Conv2D)              (None, 256, 256, 1)  17          conv2d_9[0][0]                   
==================================================================================================
Total params: 281,665
Trainable params: 280,513
Non-trainable params: 1,152
__________________________________________________________________________________________________
10 32 1e-05
Epoch 1/10
 - 1156s - loss: 0.0019 - val_loss: 4.6371e-04
Epoch 2/10
 - 1149s - loss: 4.4810e-04 - val_loss: 4.4329e-04
…
 - 1150s - loss: 4.3325e-04 - val_loss: 4.4258e-04
Epoch 10/10
 - 1150s - loss: 4.3290e-04 - val_loss: 4.3408e-04
Saving losses
Save network
Test loss = 0.00046797693
Test pearson = (0.34140402, 0.0)
Result loss = 0.00043599666
Result pearson = (0.3747045, 0.0)
Garbage collect: 39676
unet deeeper lr = 1e-05
__________________________________________________________________________________________________
Layer (type)                    Output Shape         Param #     Connected to                     
==================================================================================================
input_2 (InputLayer)            (None, 256, 256, 1)  0                                            
__________________________________________________________________________________________________
conv2d_11 (Conv2D)              (None, 256, 256, 16) 160         input_2[0][0]                    
__________________________________________________________________________________________________
batch_normalization_10 (BatchNo (None, 256, 256, 16) 64          conv2d_11[0][0]                  
__________________________________________________________________________________________________
average_pooling2d_5 (AveragePoo (None, 128, 128, 16) 0           batch_normalization_10[0][0]     
__________________________________________________________________________________________________
conv2d_12 (Conv2D)              (None, 128, 128, 32) 4640        average_pooling2d_5[0][0]        
__________________________________________________________________________________________________
batch_normalization_11 (BatchNo (None, 128, 128, 32) 128         conv2d_12[0][0]                  
__________________________________________________________________________________________________
average_pooling2d_6 (AveragePoo (None, 64, 64, 32)   0           batch_normalization_11[0][0]     
__________________________________________________________________________________________________
conv2d_13 (Conv2D)              (None, 64, 64, 64)   18496       average_pooling2d_6[0][0]        
__________________________________________________________________________________________________
batch_normalization_12 (BatchNo (None, 64, 64, 64)   256         conv2d_13[0][0]                  
__________________________________________________________________________________________________
average_pooling2d_7 (AveragePoo (None, 32, 32, 64)   0           batch_normalization_12[0][0]     
__________________________________________________________________________________________________
conv2d_14 (Conv2D)              (None, 32, 32, 128)  73856       average_pooling2d_7[0][0]        
__________________________________________________________________________________________________
batch_normalization_13 (BatchNo (None, 32, 32, 128)  512         conv2d_14[0][0]                  
__________________________________________________________________________________________________
average_pooling2d_8 (AveragePoo (None, 16, 16, 128)  0           batch_normalization_13[0][0]     
__________________________________________________________________________________________________
conv2d_15 (Conv2D)              (None, 16, 16, 256)  295168      average_pooling2d_8[0][0]        
__________________________________________________________________________________________________
batch_normalization_14 (BatchNo (None, 16, 16, 256)  1024        conv2d_15[0][0]                  
__________________________________________________________________________________________________
up_sampling2d_5 (UpSampling2D)  (None, 32, 32, 256)  0           batch_normalization_14[0][0]     
__________________________________________________________________________________________________
concatenate_5 (Concatenate)     (None, 32, 32, 384)  0           batch_normalization_13[0][0]     
                                                                 up_sampling2d_5[0][0]            
__________________________________________________________________________________________________
conv2d_16 (Conv2D)              (None, 32, 32, 128)  442496      concatenate_5[0][0]              
__________________________________________________________________________________________________
batch_normalization_15 (BatchNo (None, 32, 32, 128)  512         conv2d_16[0][0]                  
__________________________________________________________________________________________________
up_sampling2d_6 (UpSampling2D)  (None, 64, 64, 128)  0           batch_normalization_15[0][0]     
__________________________________________________________________________________________________
concatenate_6 (Concatenate)     (None, 64, 64, 192)  0           batch_normalization_12[0][0]     
                                                                 up_sampling2d_6[0][0]            
__________________________________________________________________________________________________
batch_normalization_16 (BatchNo (None, 64, 64, 192)  768         concatenate_6[0][0]              
__________________________________________________________________________________________________
conv2d_17 (Conv2D)              (None, 64, 64, 64)   110656      batch_normalization_16[0][0]     
__________________________________________________________________________________________________
up_sampling2d_7 (UpSampling2D)  (None, 128, 128, 64) 0           conv2d_17[0][0]                  
__________________________________________________________________________________________________
concatenate_7 (Concatenate)     (None, 128, 128, 96) 0           batch_normalization_11[0][0]     
                                                                 up_sampling2d_7[0][0]            
__________________________________________________________________________________________________
batch_normalization_17 (BatchNo (None, 128, 128, 96) 384         concatenate_7[0][0]              
__________________________________________________________________________________________________
conv2d_18 (Conv2D)              (None, 128, 128, 32) 27680       batch_normalization_17[0][0]     
__________________________________________________________________________________________________
up_sampling2d_8 (UpSampling2D)  (None, 256, 256, 32) 0           conv2d_18[0][0]                  
__________________________________________________________________________________________________
concatenate_8 (Concatenate)     (None, 256, 256, 48) 0           batch_normalization_10[0][0]     
                                                                 up_sampling2d_8[0][0]            
__________________________________________________________________________________________________
batch_normalization_18 (BatchNo (None, 256, 256, 48) 192         concatenate_8[0][0]              
__________________________________________________________________________________________________
conv2d_19 (Conv2D)              (None, 256, 256, 16) 6928        batch_normalization_18[0][0]     
__________________________________________________________________________________________________
conv2d_20 (Conv2D)              (None, 256, 256, 1)  17          conv2d_19[0][0]                  
==================================================================================================
Total params: 983,937
Trainable params: 982,017
Non-trainable params: 1,920
__________________________________________________________________________________________________
10 32 1e-05
Epoch 1/10
 - 1252s - loss: 0.0012 - val_loss: 4.5391e-04
Epoch 2/10
 - 1250s - loss: 4.4274e-04 - val_loss: 4.4000e-04
…
