…
2019-07-11 21:01:32.259223: I tensorflow/core/common_runtime/gpu/gpu_device.cc:1097] Created TensorFlow device (/job:localhost/replica:0/task:0/device:GPU:0 with 14941 MB memory) -> physical GPU (device: 0, name: Tesla V100-PCIE-16GB, pci bus id: 0000:3b:00.0, compute capability: 7.0)
Plotting data. Saving to: ../outputs/picola_script_outputs/picola_data.png
<generator object batch_generator at 0x2b3a1e5c3db0>
(368684, 256, 256, 1)
(8000, 256, 256, 1)
11521
unet simplest deeeper lr = None
__________________________________________________________________________________________________
Layer (type)                    Output Shape         Param #     Connected to                     
==================================================================================================
input_1 (InputLayer)            (None, 256, 256, 1)  0                                            
__________________________________________________________________________________________________
conv2d_1 (Conv2D)               (None, 256, 256, 16) 160         input_1[0][0]                    
__________________________________________________________________________________________________
batch_normalization_1 (BatchNor (None, 256, 256, 16) 64          conv2d_1[0][0]                   
__________________________________________________________________________________________________
average_pooling2d_1 (AveragePoo (None, 128, 128, 16) 0           batch_normalization_1[0][0]      
__________________________________________________________________________________________________
conv2d_2 (Conv2D)               (None, 128, 128, 32) 4640        average_pooling2d_1[0][0]        
__________________________________________________________________________________________________
batch_normalization_2 (BatchNor (None, 128, 128, 32) 128         conv2d_2[0][0]                   
__________________________________________________________________________________________________
average_pooling2d_2 (AveragePoo (None, 64, 64, 32)   0           batch_normalization_2[0][0]      
__________________________________________________________________________________________________
conv2d_3 (Conv2D)               (None, 64, 64, 64)   18496       average_pooling2d_2[0][0]        
__________________________________________________________________________________________________
batch_normalization_3 (BatchNor (None, 64, 64, 64)   256         conv2d_3[0][0]                   
__________________________________________________________________________________________________
average_pooling2d_3 (AveragePoo (None, 32, 32, 64)   0           batch_normalization_3[0][0]      
__________________________________________________________________________________________________
conv2d_4 (Conv2D)               (None, 32, 32, 64)   36928       average_pooling2d_3[0][0]        
__________________________________________________________________________________________________
batch_normalization_4 (BatchNor (None, 32, 32, 64)   256         conv2d_4[0][0]                   
__________________________________________________________________________________________________
average_pooling2d_4 (AveragePoo (None, 16, 16, 64)   0           batch_normalization_4[0][0]      
__________________________________________________________________________________________________
conv2d_5 (Conv2D)               (None, 16, 16, 64)   36928       average_pooling2d_4[0][0]        
__________________________________________________________________________________________________
batch_normalization_5 (BatchNor (None, 16, 16, 64)   256         conv2d_5[0][0]                   
__________________________________________________________________________________________________
up_sampling2d_1 (UpSampling2D)  (None, 32, 32, 64)   0           batch_normalization_5[0][0]      
__________________________________________________________________________________________________
concatenate_1 (Concatenate)     (None, 32, 32, 128)  0           batch_normalization_4[0][0]      
                                                                 up_sampling2d_1[0][0]            
__________________________________________________________________________________________________
conv2d_6 (Conv2D)               (None, 32, 32, 64)   73792       concatenate_1[0][0]              
__________________________________________________________________________________________________
batch_normalization_6 (BatchNor (None, 32, 32, 64)   256         conv2d_6[0][0]                   
__________________________________________________________________________________________________
up_sampling2d_2 (UpSampling2D)  (None, 64, 64, 64)   0           batch_normalization_6[0][0]      
__________________________________________________________________________________________________
concatenate_2 (Concatenate)     (None, 64, 64, 128)  0           batch_normalization_3[0][0]      
                                                                 up_sampling2d_2[0][0]            
__________________________________________________________________________________________________
batch_normalization_7 (BatchNor (None, 64, 64, 128)  512         concatenate_2[0][0]              
__________________________________________________________________________________________________
conv2d_7 (Conv2D)               (None, 64, 64, 64)   73792       batch_normalization_7[0][0]      
__________________________________________________________________________________________________
up_sampling2d_3 (UpSampling2D)  (None, 128, 128, 64) 0           conv2d_7[0][0]                   
__________________________________________________________________________________________________
concatenate_3 (Concatenate)     (None, 128, 128, 96) 0           batch_normalization_2[0][0]      
                                                                 up_sampling2d_3[0][0]            
__________________________________________________________________________________________________
batch_normalization_8 (BatchNor (None, 128, 128, 96) 384         concatenate_3[0][0]              
__________________________________________________________________________________________________
conv2d_8 (Conv2D)               (None, 128, 128, 32) 27680       batch_normalization_8[0][0]      
__________________________________________________________________________________________________
up_sampling2d_4 (UpSampling2D)  (None, 256, 256, 32) 0           conv2d_8[0][0]                   
__________________________________________________________________________________________________
concatenate_4 (Concatenate)     (None, 256, 256, 48) 0           batch_normalization_1[0][0]      
                                                                 up_sampling2d_4[0][0]            
__________________________________________________________________________________________________
batch_normalization_9 (BatchNor (None, 256, 256, 48) 192         concatenate_4[0][0]              
__________________________________________________________________________________________________
conv2d_9 (Conv2D)               (None, 256, 256, 16) 6928        batch_normalization_9[0][0]      
__________________________________________________________________________________________________
conv2d_10 (Conv2D)              (None, 256, 256, 1)  17          conv2d_9[0][0]                   
==================================================================================================
Total params: 281,665
Trainable params: 280,513
Non-trainable params: 1,152
__________________________________________________________________________________________________
20 32 None
Epoch 1/20
 - 1151s - loss: 4.5776e-04 - val_loss: 4.4063e-04
Epoch 2/20
…
 - 1136s - loss: 4.3033e-04 - val_loss: 4.3232e-04
Epoch 20/20
 - 1137s - loss: 4.2987e-04 - val_loss: 4.2774e-04
Saving losses
Save network
Test loss = 0.0004627225
Test pearson = (0.34128594, 0.0)
Result loss = 0.00043209907
Result pearson = (0.37202424, 0.0)
Garbage collect: 42074
unet deeeper lr = None
__________________________________________________________________________________________________
Layer (type)                    Output Shape         Param #     Connected to                     
==================================================================================================
input_4 (InputLayer)            (None, 256, 256, 1)  0                                            
__________________________________________________________________________________________________
conv2d_31 (Conv2D)              (None, 256, 256, 16) 160         input_4[0][0]                    
__________________________________________________________________________________________________
batch_normalization_28 (BatchNo (None, 256, 256, 16) 64          conv2d_31[0][0]                  
__________________________________________________________________________________________________
average_pooling2d_13 (AveragePo (None, 128, 128, 16) 0           batch_normalization_28[0][0]     
__________________________________________________________________________________________________
conv2d_32 (Conv2D)              (None, 128, 128, 32) 4640        average_pooling2d_13[0][0]       
__________________________________________________________________________________________________
batch_normalization_29 (BatchNo (None, 128, 128, 32) 128         conv2d_32[0][0]                  
__________________________________________________________________________________________________
average_pooling2d_14 (AveragePo (None, 64, 64, 32)   0           batch_normalization_29[0][0]     
__________________________________________________________________________________________________
conv2d_33 (Conv2D)              (None, 64, 64, 64)   18496       average_pooling2d_14[0][0]       
__________________________________________________________________________________________________
batch_normalization_30 (BatchNo (None, 64, 64, 64)   256         conv2d_33[0][0]                  
__________________________________________________________________________________________________
average_pooling2d_15 (AveragePo (None, 32, 32, 64)   0           batch_normalization_30[0][0]     
__________________________________________________________________________________________________
conv2d_34 (Conv2D)              (None, 32, 32, 128)  73856       average_pooling2d_15[0][0]       
__________________________________________________________________________________________________
batch_normalization_31 (BatchNo (None, 32, 32, 128)  512         conv2d_34[0][0]                  
__________________________________________________________________________________________________
average_pooling2d_16 (AveragePo (None, 16, 16, 128)  0           batch_normalization_31[0][0]     
__________________________________________________________________________________________________
conv2d_35 (Conv2D)              (None, 16, 16, 256)  295168      average_pooling2d_16[0][0]       
__________________________________________________________________________________________________
batch_normalization_32 (BatchNo (None, 16, 16, 256)  1024        conv2d_35[0][0]                  
__________________________________________________________________________________________________
up_sampling2d_13 (UpSampling2D) (None, 32, 32, 256)  0           batch_normalization_32[0][0]     
__________________________________________________________________________________________________
concatenate_13 (Concatenate)    (None, 32, 32, 384)  0           batch_normalization_31[0][0]     
                                                                 up_sampling2d_13[0][0]           
__________________________________________________________________________________________________
conv2d_36 (Conv2D)              (None, 32, 32, 128)  442496      concatenate_13[0][0]             
__________________________________________________________________________________________________
batch_normalization_33 (BatchNo (None, 32, 32, 128)  512         conv2d_36[0][0]                  
__________________________________________________________________________________________________
up_sampling2d_14 (UpSampling2D) (None, 64, 64, 128)  0           batch_normalization_33[0][0]     
__________________________________________________________________________________________________
concatenate_14 (Concatenate)    (None, 64, 64, 192)  0           batch_normalization_30[0][0]     
                                                                 up_sampling2d_14[0][0]           
__________________________________________________________________________________________________
batch_normalization_34 (BatchNo (None, 64, 64, 192)  768         concatenate_14[0][0]             
__________________________________________________________________________________________________
conv2d_37 (Conv2D)              (None, 64, 64, 64)   110656      batch_normalization_34[0][0]     
__________________________________________________________________________________________________
up_sampling2d_15 (UpSampling2D) (None, 128, 128, 64) 0           conv2d_37[0][0]                  
__________________________________________________________________________________________________
concatenate_15 (Concatenate)    (None, 128, 128, 96) 0           batch_normalization_29[0][0]     
                                                                 up_sampling2d_15[0][0]           
__________________________________________________________________________________________________
batch_normalization_35 (BatchNo (None, 128, 128, 96) 384         concatenate_15[0][0]             
__________________________________________________________________________________________________
conv2d_38 (Conv2D)              (None, 128, 128, 32) 27680       batch_normalization_35[0][0]     
__________________________________________________________________________________________________
up_sampling2d_16 (UpSampling2D) (None, 256, 256, 32) 0           conv2d_38[0][0]                  
__________________________________________________________________________________________________
concatenate_16 (Concatenate)    (None, 256, 256, 48) 0           batch_normalization_28[0][0]     
                                                                 up_sampling2d_16[0][0]           
__________________________________________________________________________________________________
batch_normalization_36 (BatchNo (None, 256, 256, 48) 192         concatenate_16[0][0]             
__________________________________________________________________________________________________
conv2d_39 (Conv2D)              (None, 256, 256, 16) 6928        batch_normalization_36[0][0]     
__________________________________________________________________________________________________
conv2d_40 (Conv2D)              (None, 256, 256, 1)  17          conv2d_39[0][0]                  
==================================================================================================
Total params: 983,937
Trainable params: 982,017
Non-trainable params: 1,920
__________________________________________________________________________________________________
20 32 None
Epoch 1/20
 - 1231s - loss: 4.5733e-04 - val_loss: 6.5449e-04
Epoch 2/20
…
