…
2019-06-25 19:34:37.382448: I tensorflow/core/common_runtime/gpu/gpu_device.cc:1097] Created TensorFlow device (/job:localhost/replica:0/task:0/device:GPU:0 with 14941 MB memory) -> physical GPU (device: 0, name: Tesla V100-PCIE-16GB, pci bus id: 0000:3b:00.0, compute capability: 7.0)
Plotting data. Saving to: ../outputs/picola_script_outputs/picola_data.png
<generator object batch_generator at 0x2b2b670158e0>
(368160, 256, 256, 1)
(8000, 256, 256, 1)
11505
training network wiener (no dropout) 


simple lr = 1e-05
_________________________________________________________________
Layer (type)                 Output Shape              Param #   
=================================================================
input_1 (InputLayer)         (None, 256, 256, 1)       0         
_________________________________________________________________
conv2d_1 (Conv2D)            (None, 256, 256, 32)      320       
_________________________________________________________________
conv2d_2 (Conv2D)            (None, 256, 256, 32)      9248      
_________________________________________________________________
batch_normalization_1 (Batch (None, 256, 256, 32)      128       
_________________________________________________________________
conv2d_3 (Conv2D)            (None, 256, 256, 32)      9248      
_________________________________________________________________
conv2d_4 (Conv2D)            (None, 256, 256, 32)      9248      
_________________________________________________________________
batch_normalization_2 (Batch (None, 256, 256, 32)      128       
_________________________________________________________________
conv2d_5 (Conv2D)            (None, 256, 256, 1)       289       
=================================================================
Total params: 28,609
Trainable params: 28,481
Non-trainable params: 128
_________________________________________________________________
20 32 1e-05
Epoch 1/20
 - 1076s - loss: 8.9822e-04 - val_loss: 4.5850e-04
Epoch 2/20
 - 1069s - loss: 4.4236e-04 - val_loss: 4.4055e-04
Epoch 3/20
 - 1070s - loss: 4.3621e-04 - val_loss: 4.3864e-04
…
 - 1072s - loss: 4.3503e-04 - val_loss: 4.4051e-04
Epoch 20/20
 - 1073s - loss: 4.3440e-04 - val_loss: 4.4049e-04
Saving losses
Save network
Predict results
Test loss = 0.000466728
Test pearson = (0.34112898, 0.0)
Result loss = 0.00043997378
Result pearson = (0.3688838, 0.0)
Garbage collect: 16034

unet deep lr = 1e-05
__________________________________________________________________________________________________
Layer (type)                    Output Shape         Param #     Connected to                     
==================================================================================================
input_3 (InputLayer)            (None, 256, 256, 1)  0                                            
__________________________________________________________________________________________________
conv2d_11 (Conv2D)              (None, 256, 256, 32) 320         input_3[0][0]                    
__________________________________________________________________________________________________
batch_normalization_5 (BatchNor (None, 256, 256, 32) 128         conv2d_11[0][0]                  
__________________________________________________________________________________________________
average_pooling2d_1 (AveragePoo (None, 128, 128, 32) 0           batch_normalization_5[0][0]      
__________________________________________________________________________________________________
conv2d_12 (Conv2D)              (None, 128, 128, 64) 18496       average_pooling2d_1[0][0]        
__________________________________________________________________________________________________
batch_normalization_6 (BatchNor (None, 128, 128, 64) 256         conv2d_12[0][0]                  
__________________________________________________________________________________________________
average_pooling2d_2 (AveragePoo (None, 64, 64, 64)   0           batch_normalization_6[0][0]      
__________________________________________________________________________________________________
conv2d_13 (Conv2D)              (None, 64, 64, 128)  73856       average_pooling2d_2[0][0]        
__________________________________________________________________________________________________
batch_normalization_7 (BatchNor (None, 64, 64, 128)  512         conv2d_13[0][0]                  
__________________________________________________________________________________________________
average_pooling2d_3 (AveragePoo (None, 32, 32, 128)  0           batch_normalization_7[0][0]      
__________________________________________________________________________________________________
conv2d_14 (Conv2D)              (None, 32, 32, 128)  147584      average_pooling2d_3[0][0]        
__________________________________________________________________________________________________
batch_normalization_8 (BatchNor (None, 32, 32, 128)  512         conv2d_14[0][0]                  
__________________________________________________________________________________________________
up_sampling2d_1 (UpSampling2D)  (None, 64, 64, 128)  0           batch_normalization_8[0][0]      
__________________________________________________________________________________________________
concatenate_1 (Concatenate)     (None, 64, 64, 256)  0           batch_normalization_7[0][0]      
                                                                 up_sampling2d_1[0][0]            
__________________________________________________________________________________________________
batch_normalization_9 (BatchNor (None, 64, 64, 256)  1024        concatenate_1[0][0]              
__________________________________________________________________________________________________
conv2d_15 (Conv2D)              (None, 64, 64, 64)   147520      batch_normalization_9[0][0]      
__________________________________________________________________________________________________
up_sampling2d_2 (UpSampling2D)  (None, 128, 128, 64) 0           conv2d_15[0][0]                  
__________________________________________________________________________________________________
concatenate_2 (Concatenate)     (None, 128, 128, 128 0           batch_normalization_6[0][0]      
                                                                 up_sampling2d_2[0][0]            
__________________________________________________________________________________________________
batch_normalization_10 (BatchNo (None, 128, 128, 128 512         concatenate_2[0][0]              
__________________________________________________________________________________________________
conv2d_16 (Conv2D)              (None, 128, 128, 64) 73792       batch_normalization_10[0][0]     
__________________________________________________________________________________________________
up_sampling2d_3 (UpSampling2D)  (None, 256, 256, 64) 0           conv2d_16[0][0]                  
__________________________________________________________________________________________________
concatenate_3 (Concatenate)     (None, 256, 256, 96) 0           batch_normalization_5[0][0]      
                                                                 up_sampling2d_3[0][0]            
__________________________________________________________________________________________________
batch_normalization_11 (BatchNo (None, 256, 256, 96) 384         concatenate_3[0][0]              
__________________________________________________________________________________________________
conv2d_17 (Conv2D)              (None, 256, 256, 32) 27680       batch_normalization_11[0][0]     
__________________________________________________________________________________________________
conv2d_18 (Conv2D)              (None, 256, 256, 1)  33          conv2d_17[0][0]                  
==================================================================================================
Total params: 492,609
Trainable params: 490,945
Non-trainable params: 1,664
__________________________________________________________________________________________________
20 32 1e-05
Epoch 1/20
 - 1805s - loss: 0.0011 - val_loss: 4.4159e-04
Epoch 2/20
 - 1798s - loss: 4.3982e-04 - val_loss: 4.4233e-04
…
