…
pixels out of range (truth) = 5
pixels out of range (input/noisy) = 0
clean array bytes = 60685549568
noisy array bytes = 60685549568
Test loss = 5.155502e-05
Plotting data. Saving to: ../outputs/picola_script_outputs/picola_data.png
<generator object batch_generator at 0x2b73189d4fc0>
(223497, 256, 256, 1)
(8000, 256, 256, 1)
6984
training network wiener (no dropout) 


simple lr = 3e-05
_________________________________________________________________
Layer (type)                 Output Shape              Param #   
=================================================================
input_1 (InputLayer)         (None, 256, 256, 1)       0         
_________________________________________________________________
conv2d_1 (Conv2D)            (None, 256, 256, 32)      320       
_________________________________________________________________
conv2d_2 (Conv2D)            (None, 256, 256, 32)      9248      
_________________________________________________________________
batch_normalization_1 (Batch (None, 256, 256, 32)      128       
_________________________________________________________________
conv2d_3 (Conv2D)            (None, 256, 256, 32)      9248      
_________________________________________________________________
conv2d_4 (Conv2D)            (None, 256, 256, 32)      9248      
_________________________________________________________________
batch_normalization_2 (Batch (None, 256, 256, 32)      128       
_________________________________________________________________
conv2d_5 (Conv2D)            (None, 256, 256, 1)       289       
=================================================================
Total params: 28,609
Trainable params: 28,481
Non-trainable params: 128
_________________________________________________________________
20 32 3e-05
Epoch 1/20
Using TensorFlow backend.
 - 667s - loss: 5.7859e-04 - val_loss: 5.2170e-05
Epoch 2/20
 - 661s - loss: 4.8976e-05 - val_loss: 5.0038e-05
Epoch 3/20
 - 662s - loss: 4.8841e-05 - val_loss: 5.0443e-05
…
 - 656s - loss: 4.8545e-05 - val_loss: 4.9639e-05
Epoch 18/20
 - 656s - loss: 4.8582e-05 - val_loss: 5.1734e-05
Epoch 19/20
 - 656s - loss: 4.8551e-05 - val_loss: 4.9264e-05
Epoch 20/20
 - 656s - loss: 4.8596e-05 - val_loss: 5.3472e-05
Epoch 1/20
Epoch 1/20

unet simple lr = 3e-05
__________________________________________________________________________________________________
Layer (type)                    Output Shape         Param #     Connected to                     
==================================================================================================
input_3 (InputLayer)            (None, 256, 256, 1)  0                                            
__________________________________________________________________________________________________
conv2d_11 (Conv2D)              (None, 256, 256, 32) 320         input_3[0][0]                    
__________________________________________________________________________________________________
batch_normalization_5 (BatchNor (None, 256, 256, 32) 128         conv2d_11[0][0]                  
__________________________________________________________________________________________________
average_pooling2d_1 (AveragePoo (None, 128, 128, 32) 0           batch_normalization_5[0][0]      
__________________________________________________________________________________________________
conv2d_12 (Conv2D)              (None, 128, 128, 64) 18496       average_pooling2d_1[0][0]        
__________________________________________________________________________________________________
batch_normalization_6 (BatchNor (None, 128, 128, 64) 256         conv2d_12[0][0]                  
__________________________________________________________________________________________________
average_pooling2d_2 (AveragePoo (None, 64, 64, 64)   0           batch_normalization_6[0][0]      
__________________________________________________________________________________________________
conv2d_13 (Conv2D)              (None, 64, 64, 128)  73856       average_pooling2d_2[0][0]        
__________________________________________________________________________________________________
batch_normalization_7 (BatchNor (None, 64, 64, 128)  512         conv2d_13[0][0]                  
__________________________________________________________________________________________________
up_sampling2d_1 (UpSampling2D)  (None, 128, 128, 128 0           batch_normalization_7[0][0]      
__________________________________________________________________________________________________
concatenate_1 (Concatenate)     (None, 128, 128, 192 0           batch_normalization_6[0][0]      
                                                                 up_sampling2d_1[0][0]            
__________________________________________________________________________________________________
batch_normalization_8 (BatchNor (None, 128, 128, 192 768         concatenate_1[0][0]              
__________________________________________________________________________________________________
conv2d_14 (Conv2D)              (None, 128, 128, 64) 110656      batch_normalization_8[0][0]      
__________________________________________________________________________________________________
up_sampling2d_2 (UpSampling2D)  (None, 256, 256, 64) 0           conv2d_14[0][0]                  
__________________________________________________________________________________________________
concatenate_2 (Concatenate)     (None, 256, 256, 96) 0           batch_normalization_5[0][0]      
                                                                 up_sampling2d_2[0][0]            
__________________________________________________________________________________________________
batch_normalization_9 (BatchNor (None, 256, 256, 96) 384         concatenate_2[0][0]              
__________________________________________________________________________________________________
conv2d_15 (Conv2D)              (None, 256, 256, 32) 27680       batch_normalization_9[0][0]      
__________________________________________________________________________________________________
conv2d_16 (Conv2D)              (None, 256, 256, 1)  33          conv2d_15[0][0]                  
==================================================================================================
Total params: 233,089
Trainable params: 232,065
Non-trainable params: 1,024
__________________________________________________________________________________________________
20 32 3e-05
Epoch 1/20
 - 1092s - loss: 1.8135e-04 - val_loss: 5.8049e-05
Epoch 2/20
…
Epoch 17/20
 - 1081s - loss: 5.2216e-05 - val_loss: 5.2012e-05
Epoch 18/20
 - 1082s - loss: 5.2251e-05 - val_loss: 5.1608e-05
Epoch 19/20
 - 1082s - loss: 5.2217e-05 - val_loss: 5.2325e-05
Epoch 20/20
 - 1082s - loss: 5.2259e-05 - val_loss: 5.2501e-05

unet deep lr = 3e-05
__________________________________________________________________________________________________
Layer (type)                    Output Shape         Param #     Connected to                     
==================================================================================================
input_5 (InputLayer)            (None, 256, 256, 1)  0                                            
__________________________________________________________________________________________________
conv2d_23 (Conv2D)              (None, 256, 256, 32) 320         input_5[0][0]                    
__________________________________________________________________________________________________
batch_normalization_15 (BatchNo (None, 256, 256, 32) 128         conv2d_23[0][0]                  
__________________________________________________________________________________________________
average_pooling2d_5 (AveragePoo (None, 128, 128, 32) 0           batch_normalization_15[0][0]     
__________________________________________________________________________________________________
conv2d_24 (Conv2D)              (None, 128, 128, 64) 18496       average_pooling2d_5[0][0]        
__________________________________________________________________________________________________
batch_normalization_16 (BatchNo (None, 128, 128, 64) 256         conv2d_24[0][0]                  
__________________________________________________________________________________________________
average_pooling2d_6 (AveragePoo (None, 64, 64, 64)   0           batch_normalization_16[0][0]     
__________________________________________________________________________________________________
conv2d_25 (Conv2D)              (None, 64, 64, 128)  73856       average_pooling2d_6[0][0]        
__________________________________________________________________________________________________
batch_normalization_17 (BatchNo (None, 64, 64, 128)  512         conv2d_25[0][0]                  
__________________________________________________________________________________________________
average_pooling2d_7 (AveragePoo (None, 32, 32, 128)  0           batch_normalization_17[0][0]     
__________________________________________________________________________________________________
conv2d_26 (Conv2D)              (None, 32, 32, 128)  147584      average_pooling2d_7[0][0]        
__________________________________________________________________________________________________
batch_normalization_18 (BatchNo (None, 32, 32, 128)  512         conv2d_26[0][0]                  
__________________________________________________________________________________________________
up_sampling2d_5 (UpSampling2D)  (None, 64, 64, 128)  0           batch_normalization_18[0][0]     
__________________________________________________________________________________________________
concatenate_5 (Concatenate)     (None, 64, 64, 256)  0           batch_normalization_17[0][0]     
                                                                 up_sampling2d_5[0][0]            
__________________________________________________________________________________________________
batch_normalization_19 (BatchNo (None, 64, 64, 256)  1024        concatenate_5[0][0]              
__________________________________________________________________________________________________
conv2d_27 (Conv2D)              (None, 64, 64, 64)   147520      batch_normalization_19[0][0]     
__________________________________________________________________________________________________
up_sampling2d_6 (UpSampling2D)  (None, 128, 128, 64) 0           conv2d_27[0][0]                  
__________________________________________________________________________________________________
concatenate_6 (Concatenate)     (None, 128, 128, 128 0           batch_normalization_16[0][0]     
                                                                 up_sampling2d_6[0][0]            
__________________________________________________________________________________________________
batch_normalization_20 (BatchNo (None, 128, 128, 128 512         concatenate_6[0][0]              
__________________________________________________________________________________________________
conv2d_28 (Conv2D)              (None, 128, 128, 64) 73792       batch_normalization_20[0][0]     
__________________________________________________________________________________________________
up_sampling2d_7 (UpSampling2D)  (None, 256, 256, 64) 0           conv2d_28[0][0]                  
__________________________________________________________________________________________________
concatenate_7 (Concatenate)     (None, 256, 256, 96) 0           batch_normalization_15[0][0]     
                                                                 up_sampling2d_7[0][0]            
__________________________________________________________________________________________________
batch_normalization_21 (BatchNo (None, 256, 256, 96) 384         concatenate_7[0][0]              
__________________________________________________________________________________________________
conv2d_29 (Conv2D)              (None, 256, 256, 32) 27680       batch_normalization_21[0][0]     
__________________________________________________________________________________________________
conv2d_30 (Conv2D)              (None, 256, 256, 1)  33          conv2d_29[0][0]                  
==================================================================================================
Total params: 492,609
Trainable params: 490,945
Non-trainable params: 1,664
__________________________________________________________________________________________________
20 32 3e-05
Epoch 1/20
 - 1110s - loss: 2.8476e-04 - val_loss: 5.8128e-05
Epoch 2/20
…
