…
pixels out of range (input/noisy) = 0
clean array bytes = 17000562688
noisy array bytes = 17000562688
Test loss = 0.0003957484
Test pearson = (0.32465938, 0.0)
Plotting data. Saving to: ../outputs/picola_script_outputs/picola_data.png
<generator object batch_generator at 0x2b71be7a84c0>
(56852, 256, 256, 1)
(8000, 256, 256, 1)
1776
training network wiener (no dropout) 


simple lr = 1e-05
_________________________________________________________________
Layer (type)                 Output Shape              Param #   
=================================================================
input_1 (InputLayer)         (None, 256, 256, 1)       0         
_________________________________________________________________
conv2d_1 (Conv2D)            (None, 256, 256, 32)      320       
_________________________________________________________________
conv2d_2 (Conv2D)            (None, 256, 256, 32)      9248      
_________________________________________________________________
batch_normalization_1 (Batch (None, 256, 256, 32)      128       
_________________________________________________________________
conv2d_3 (Conv2D)            (None, 256, 256, 32)      9248      
_________________________________________________________________
conv2d_4 (Conv2D)            (None, 256, 256, 32)      9248      
_________________________________________________________________
batch_normalization_2 (Batch (None, 256, 256, 32)      128       
_________________________________________________________________
conv2d_5 (Conv2D)            (None, 256, 256, 1)       289       
=================================================================
Total params: 28,609
Trainable params: 28,481
Non-trainable params: 128
_________________________________________________________________
20 32 1e-05
Epoch 1/20
 - 179s - loss: 0.0022 - val_loss: 5.2617e-04
Epoch 2/20
 - 173s - loss: 4.4563e-04 - val_loss: 4.2036e-04
Epoch 3/20
 - 173s - loss: 3.9881e-04 - val_loss: 4.5460e-04
…
