…
2019-07-02 11:30:38.989571: I tensorflow/core/common_runtime/gpu/gpu_device.cc:1097] Created TensorFlow device (/job:localhost/replica:0/task:0/device:GPU:0 with 14941 MB memory) -> physical GPU (device: 0, name: Tesla V100-PCIE-16GB, pci bus id: 0000:3b:00.0, compute capability: 7.0)
Plotting data. Saving to: ../outputs/picola_script_outputs/picola_data.png
<generator object batch_generator at 0x2b3ebf5d3fc0>
(12175, 256, 256, 1)
(800, 256, 256, 1)
380
training network wiener (no dropout) 


Dropout = 0.15
unet deep lr = 1e-05
using dropout: 0.15
__________________________________________________________________________________________________
Layer (type)                    Output Shape         Param #     Connected to                     
==================================================================================================
input_1 (InputLayer)            (None, 256, 256, 1)  0                                            
__________________________________________________________________________________________________
conv2d_1 (Conv2D)               (None, 256, 256, 32) 320         input_1[0][0]                    
__________________________________________________________________________________________________
batch_normalization_1 (BatchNor (None, 256, 256, 32) 128         conv2d_1[0][0]                   
__________________________________________________________________________________________________
average_pooling2d_1 (AveragePoo (None, 128, 128, 32) 0           batch_normalization_1[0][0]      
__________________________________________________________________________________________________
conv2d_2 (Conv2D)               (None, 128, 128, 64) 18496       average_pooling2d_1[0][0]        
__________________________________________________________________________________________________
batch_normalization_2 (BatchNor (None, 128, 128, 64) 256         conv2d_2[0][0]                   
__________________________________________________________________________________________________
average_pooling2d_2 (AveragePoo (None, 64, 64, 64)   0           batch_normalization_2[0][0]      
__________________________________________________________________________________________________
conv2d_3 (Conv2D)               (None, 64, 64, 128)  73856       average_pooling2d_2[0][0]        
__________________________________________________________________________________________________
batch_normalization_3 (BatchNor (None, 64, 64, 128)  512         conv2d_3[0][0]                   
__________________________________________________________________________________________________
average_pooling2d_3 (AveragePoo (None, 32, 32, 128)  0           batch_normalization_3[0][0]      
__________________________________________________________________________________________________
conv2d_4 (Conv2D)               (None, 32, 32, 128)  147584      average_pooling2d_3[0][0]        
__________________________________________________________________________________________________
batch_normalization_4 (BatchNor (None, 32, 32, 128)  512         conv2d_4[0][0]                   
__________________________________________________________________________________________________
up_sampling2d_1 (UpSampling2D)  (None, 64, 64, 128)  0           batch_normalization_4[0][0]      
__________________________________________________________________________________________________
concatenate_1 (Concatenate)     (None, 64, 64, 256)  0           batch_normalization_3[0][0]      
                                                                 up_sampling2d_1[0][0]            
__________________________________________________________________________________________________
dropout_1 (Dropout)             (None, 64, 64, 256)  0           concatenate_1[0][0]              
__________________________________________________________________________________________________
conv2d_5 (Conv2D)               (None, 64, 64, 64)   147520      dropout_1[0][0]                  
__________________________________________________________________________________________________
up_sampling2d_2 (UpSampling2D)  (None, 128, 128, 64) 0           conv2d_5[0][0]                   
__________________________________________________________________________________________________
concatenate_2 (Concatenate)     (None, 128, 128, 128 0           batch_normalization_2[0][0]      
                                                                 up_sampling2d_2[0][0]            
__________________________________________________________________________________________________
dropout_2 (Dropout)             (None, 128, 128, 128 0           concatenate_2[0][0]              
__________________________________________________________________________________________________
conv2d_6 (Conv2D)               (None, 128, 128, 64) 73792       dropout_2[0][0]                  
__________________________________________________________________________________________________
up_sampling2d_3 (UpSampling2D)  (None, 256, 256, 64) 0           conv2d_6[0][0]                   
__________________________________________________________________________________________________
concatenate_3 (Concatenate)     (None, 256, 256, 96) 0           batch_normalization_1[0][0]      
                                                                 up_sampling2d_3[0][0]            
__________________________________________________________________________________________________
dropout_3 (Dropout)             (None, 256, 256, 96) 0           concatenate_3[0][0]              
__________________________________________________________________________________________________
conv2d_7 (Conv2D)               (None, 256, 256, 32) 27680       dropout_3[0][0]                  
__________________________________________________________________________________________________
conv2d_8 (Conv2D)               (None, 256, 256, 1)  33          conv2d_7[0][0]                   
==================================================================================================
Total params: 490,689
Trainable params: 489,985
Non-trainable params: 704
__________________________________________________________________________________________________
10 32 1e-05
Epoch 1/10
 - 72s - loss: 0.0073 - val_loss: 0.0011
Epoch 2/10
 - 66s - loss: 0.0012 - val_loss: 5.4788e-04
…
